…
tps://lh3.googleusercontent.com/a/default-user=s64","userId":"14588855259162105764"}},"outputId":"12388f61-518b-4b38-abbf-34ea52deb776"},"outputs":[{"output_type":"stream","name":"stdout","text":["Model: \"model_13\"\n","_________________________________________________________________\n"," Layer (type)                Output Shape              Param #   \n","=================================================================\n"," input_9 (InputLayer)        [(None, 24, 24, 1)]       0         \n","                                                                 \n"," conv2d_16 (Conv2D)          (None, 24, 24, 512)       5120      \n","                                                                 \n"," max_pooling2d_16 (MaxPoolin  (None, 12, 12, 512)      0         \n"," g2D)                                                            \n","                                                                 \n"," conv2d_17 (Conv2D)          (None, 12, 12, 256)       1179904   \n","                                                                 \n"," max_pooling2d_17 (MaxPoolin  (None, 6, 6, 256)        0         \n"," g2D)                                                            \n","                                                                 \n"," conv2d_18 (Conv2D)          (None, 6, 6, 128)         295040    \n","                                                                 \n"," max_pooling2d_18 (MaxPoolin  (None, 3, 3, 128)        0         \n"," g2D)                                                            \n","                                                                 \n"," conv2d_19 (Conv2D)          (None, 3, 3, 64)          73792     \n","                                                                 \n"," max_pooling2d_19 (MaxPoolin  (None, 1, 1, 64)         0         \n"," g2D)                                                            \n","                                                                 \n","=================================================================\n","Total params: 1,553,856\n","Trainable params: 1,553,856\n","Non-trainable params: 0\n","_________________________________________________________________\n","Model: \"model_14\
…
==================================\n","Total params: 1,553,793\n","Trainable params: 1,553,793\n","Non-trainable params: 0\n","_________________________________________________________________\n","Model: \"model_12\"\n","_________________________________________________________________\n"," Layer (type)                Output Shape              Param #   \n","=================================================================\n"," input_9 (InputLayer)        [(None, 24, 24, 1)]       0         \n","                                                                 \n"," conv2d_16 (Conv2D)          (None, 24, 24, 512)       5120      \n","                                                                 \n"," max_pooling2d_16 (MaxPoolin  (None, 12, 12, 512)      0         \n"," g2D)                                                            \n","                                                                 \n"," conv2d_17 (Conv2D)          (None, 12, 12, 256)       1179904   \n","                                                                 \n"," max_pooling2d_17 (MaxPoolin  (None, 6, 6, 256)        0         \n"," g2D)                                                            \n","                                                                 \n"," conv2d_18 (Conv2D)          (None, 6, 6, 128)         295040    \n","                                                                 \n"," max_pooling2d_18 (MaxPoolin  (None, 3, 3, 128)        0         \n"," g2D)                                                            \n","                                                                 \n"," conv2d_19 (Conv2D)          (None, 3, 3, 64)          73792     \n","                                                                 \n"," max_pooling2d_19 (MaxPoolin  (None, 1, 1, 64)         0         \n"," g2D)                                                            \n","                                                                 \n"," conv2d_transpose_20 (Conv2D  (None, 1, 1, 64)         36928     \n"," Transpose)                                                      \n","                                                                 \n"," up_sampling2d_16 (UpSamplin  (None, 3, 3, 64)         0         \n"," g2D)                                                            \n","                                                                 \n"," conv2d_transpose_21 (Conv2D  multiple                 73856     \n"," Transpose)                                                      \n","                                                                 \n"," up_sampling2d_17 (UpSamplin  multip
…
